parameters/agent_param.pt (torch, 191503 bytes, 8 tensors)

fc1.weight f4 [150, 8]
000000 53 4e ea bd ba 26 89 be 5d de 16 be 69 f0 b4 be
       -0.114407204 -0.2678736 -0.14733262 -0.35339668
000010 f5 0f 39 3d 81 fa f7 3c 5f 08 23 bc 50 c0 45 be
       0.045181233 0.030270817 -0.009950726 -0.19311643
000020 a2 57 51 3d 36 8f 3b 3e 92 f0 f0 bb 0c 28 76 3e
       0.051108964 0.1831635 -0.007352897 0.24038714
000030 a9 4c 19 bc 61 70 0d be 67 20 17 bc 91 e4 b3 3e
       -0.009356656 -0.138124 -0.009224034 0.3513532
000040 5a 14 bc be 1f 6b 46 be 3b 1d b7 3d df a1 bb bc
       -0.36734277 -0.19376801 0.08941122 -0.022904335
000050 c4 5f 92 3e 24 13 ae 3e 2e 74 be bc dc 39 47 3e
       0.28588688 0.33998978 -0.023248758 0.19455665
000060 35 37 cf 3d 79 23 18 be e7 e1 43 be d8 a3 dd bd
       0.10117952 -0.14857282 -0.19129144 -0.10822266
000070 56 a8 88 3e 46 29 49 3e 0e 89 5a 3e b1 de b2 be
       0.2669093 0.19644651 0.21341345 -0.34935525
000080 c4 17 6b 3d 43 eb 5f 3c f5 8b 3d bd b9 85 60 bd
       0.05739571 0.013666931 -0.04627605 -0.054815028
000090 fc eb 23 be b9 85 c1 be 14 f9 b8 be 72 77 dc bd
       -0.1600799 -0.37797335 -0.36127532 -0.1076497
0000a0 b3 84 61 3e 40 61 32 be 19 60 c5 3e 3b 0a 3e be
       0.22023277 -0.1741991 0.3854988 -0.1855859
0000b0 9b 1b 4f 3e 0e 31 31 3e b3 7f 9f 3e 2d 90 4d be
       0.20225374 0.17303869 0.31152114 -0.2007453
0000c0 fb 94 cf 3e b8 b0 5c be 4c 1e 4c be 8d 96 c6 be
       0.4054335 -0.21551788 -0.19933432 -0.38786736
0000d0 e3 3e 4e be 7d ea 29 bd 38 3a 98 be eb cf 99 3e
       -0.20141177 -0.04148339 -0.29731917 0.3004144
0000e0 57 9f fc 3d 27 ec 8c be 52 f7 c4 3e d5 27 cb be
       0.12335079 -0.2752392 0.3846994 -0.39678827
0000f0 43 93 23 3e ea 2c be 3d 3e 01 95 3e dd 70 94 3e
       0.15974145 0.092859104 0.2910251 0.28992358
000100 a0 8d d1 3e 18 52 34 3b 67 94 47 3e f4 2e 88 be
       0.40928364 0.0027514752 0.19490205 -0.26598322
000110 27 35 4b be 7b ec d8 3d c1 71 32 3d de a3 9b 3e
       -0.19844495 0.1059198 0.043565515 0.30398458
000120 a4 6d 07 3e 32 30 6d 3e 58 10 7e be d9 69 50 3e
       0.13225418 0.23162916 -0.24810922 0.20352878
000130 83 96 8b 3e cc 51 48 3e de 3c c5 3e 83 d0 8d be
       0.2726327 0.19562453 0.38523 -0.27698144
000140 f3 3d a0 3e 33 b9 1c 3e 89 19 ef 3e 8a 2c d2 3d
       0.31297264 0.15305023 0.4669917 0.102624014
000150 04 9a 87 3e 4f 10 b7 3e 7f 43 e0 3d 2c ad 4e 3d
       0.26484692 0.3575463 0.10950374 0.05045812
000160 b3 64 13 bc 9d 54 1f 3f b5 48 05 bf 1b d8 0a bd
       -0.0089961765 0.62238485 -0.5206407 -0.0338975
000170 ee 2a 89 be ad f4 8b be 18 d8 3e 3e 6d 2a 95 3c
       -0.26790565 -0.2733511 0.1863712 0.018208707
000180 82 81 f4 be 8e 9e 23 be 27 b0 96 bd a4 f0 be be
       -0.47755057 -0.15978453 -0.07357817 -0.3729297
000190 af ac 77 be cb b7 8a 3e 34 cc ff 3d db 52 9b 3e
       -0.24186967 0.27093348 0.124901205 0.3033665
0001a0 ef a4 3a bb 99 d5 f0 bd d7 bf cc bd 41 3b a5 be
       -0.0028479656 -0.117594905 -0.09997528 -0.3227177
0001b0 fe 72 0a 3f c1 2f 88 3d ec c3 cb bd 89 db 9a 3e
       0.54081714 0.06649733 -0.099494785 0.30245617
0001c0 ce 1d a4 3c 1a 79 b1 bd ce 07 a9 be b9 f4 fb 3d
       0.020033743 -0.086656764 -0.33013767 0.123025365
0001d0 35 5b 93 3e f8 06 17 3e c9 18 ba 3e ab 01 ba 3e
       0.28780523 0.14748752 0.36347035 0.36329398
0001e0 05 ce ba be 9f a8 72 3e 42 df 97 be 5a ef f1 3d
       -0.36485305 0.23697136 -0.2966252 0.11813231
0001f0 88 04 92 bd a2 d0 e6 3d 5a ef 1e bd 03 e5 fe 3e
       -0.071297705 0.11270262 -0.038802482 0.49784097
000200 4f a6 97 3d 6c cc 09 be fa 84 9f bd 91 76 b8 3d
       0.07404768 -0.13456887 -0.07789035 0.0900699
000210 0d 71 73 bd 9a 67 dd be 35 31 17 be 81 b6 12 3e
       -0.059433986 -0.43243104 -0.14764865 0.14327432
000220 d9 6f 76 3e fd b8 a4 bc 64 27 02 be 7c cc 1d be
       0.24066104 -0.02010774 -0.12710339 -0.15410036
000230 46 e6 22 3f fe b5 17 3e 14 36 a5 be 03 17 c7 be
       0.6363262 0.14815518 -0.3226782 -0.38884744
000240 c3 4a 0a bf d1 85 92 be b3 bd ce be 60 a0 11 3e
       -0.5402033 -0.2861772 -0.40379104 0.14221334
000250 f2 00 10 be ee db 26 3e ed 90 2f be 54 72 b6 bd
       -0.1406286 0.16294834 -0.17145129 -0.08908525
000260 35 13 59 3e 69 39 6f be a6 1c 4f be bd f7 b8 3d
       0.21198733 -0.23361744 -0.20225772 0.09031627
000270 e5 94 82 3d 7a 22 1e 3f f2 c7 3e 3e c1 b4 64 3e
       0.06376056 0.6177136 0.1863096 0.22334577
000280 e2 06 2e 3e 74 c8 79 3e 3c 8e 9f be 26 68 de 3d
       0.16994813 0.24392873 -0.31163204 0.108597085
000290 fb 4f b1 3e 62 ee ff 3e 6d 60 28 3e a2 6c cc 3e
       0.34631333 0.4998656 0.16443034 0.3992663
0002a0 db 81 71 be 3c 87 d1 3d 70 c1 11 bd 34 b9 91 3e
       -0.23584692 0.10230872 -0.035584867 0.2846161
0002b0 39 ff ef 3e 94 1e ba 3e a7 7e fb bc 9e 61 75 be
       0.46874407 0.36351454 -0.030700041 -0.23963019
0002c0 a7 7e 6c 3e 8f 70 8f 3e 53 64 e6 3e b8 11 93 bd
       0.23095189 0.28015563 0.44998416 -0.07181114
0002d0 f4 fe d2 be e8 26 8a 3e 76 20 6c be 9b 04 04 3d
       -0.4121014 0.26982808 -0.23059258 0.032230955
0002e0 34 60 fe 3c 83 74 b0 3e 19 f2 8b 3e 09 cf 21 3e
       0.031051733 0.3446389 0.27333143 0.15801634
0002f0 37 4d 5d 3c 99 1e 8a 3e 15 1b 27 be 80 93 1e 3d
       0.013507179 0.2697647 -0.16318925 0.038714886
000300 02 b4 44 3e d8 41 d6 be 08 0c 87 bd 5c e3 a4 be
       0.19209293 -0.4184711 -0.06594092 -0.3220471
000310 54 77 e8 bc 13 b3 ae be 9d 37 06 3e 14 d1 24 3e
       -0.028377213 -0.34120998 0.13107152 0.16095382
000320 d9 8d 9c be af 00 d7 bd 49 26 23 be e8 49 43 bd
       -0.3057697 -0.10498177 -0.15932573 -0.047677904
000330 7d 53 65 3d 0f 0f 55 3e cb ec 45 3e ae 60 78 3e
       0.055987824 0.20806526 0.1932861 0.2425563
000340 a2 ab ea 3e 54 f7 3f be f1 bb af 3e 68 d0 94 be
       0.4583407 -0.18746692 0.34323075 -0.2906525
000350 03 d0 92 bd f3 6d e4 bd 5f 45 63 3c 34 71 7f 3e
       -0.07168581 -0.11153784 0.01387152 0.24945527
000360 6b 9c 5a 3e 7c 3e be be 87 de cd be 5a 6f 43 be
       0.21348731 -0.37157047 -0.40208837 -0.19085446
000370 b6 a2 11 3d 52 00 6e 3e 77 70 6f bd 26 97 aa be
       0.035555564 0.2324231 -0.058456864 -0.33318442
000380 df bb ff be a4 c4 8f bd 81 88 d4 be 67 bc 03 bf
       -0.49948022 -0.07019928 -0.41510394 -0.51459354
000390 9e 25 78 3e 76 58 63 be 6f 55 2e be f4 f9 ec 3d
       0.242331 -0.22201714 -0.17024778 0.11571112
0003a0 33 07 87 3e 18 c2 d3 3d 41 33 8e be 5d 8a 2b 3e
       0.2637268 0.10339755 -0.2777348 0.16752
0003b0 d0 85 99 be c7 a1 5c 3e 8f b9 1a be d2 54 b3 3e
       -0.29984903 0.21546088 -0.15109847 0.3502565
0003c0 88 2c be bd 85 cb aa be 1e e0 8c be 13 3a 1a 3e
       -0.092858374 -0.33358398 -0.27514738 0.15061216
0003d0 ea e8 05 3e b8 ae ad 3e 14 26 81 3e e9 f8 01 3e
       0.13077131 0.33922362 0.25224364 0.12692608
0003e0 54 c8 93 be 3f c0 0d be 91 bc a5 3e e6 27 82 be
       -0.28863776 -0.13842867 0.32370427 -0.25421065
0003f0 ef fa e2 be 1f 9d 7b 3e a0 c7 a4 3e 88 f9 ab 3e
       -0.44332072 0.24571656 0.32183552 0.33588815

fc1.bias f4 [150]
000000 7c c2 1e 3e 12 57 6d 3e 9c 9c 9d 3e b8 e4 e2 3c
       0.15503877 0.23177746 0.30783546 0.027696952
000010 9e 43 a7 bd 03 a8 86 bd 95 73 6c 3e c5 b7 97 3e
       -0.08167194 -0.065750144 0.23090966 0.29632393
000020 89 da ac bd 22 ed 65 3d ba 6f 7d 3e 6d 84 53 be
       -0.0844012 0.05613435 0.24749652 -0.20655985
000030 7c 47 14 be 51 4e 66 3e 28 99 cc 3d d3 bc eb 3d
       -0.14480394 0.22490813 0.0999015 0.11510625
000040 ab 61 79 3e 74 d5 8b bd 74 21 78 3e 6a 25 51 3e
       0.24353664 -0.06827822 0.24231511 0.20424429
000050 25 e4 c7 bc f0 8f 1e 3e 2a 95 db 3e 2f ba e7 3e
       -0.02440078 0.15484595 0.4288724 0.45259234
000060 b0 d8 3f 3e ae 20 75 3c 57 87 83 3c 3f 60 bd 3e
       0.18735003 0.014961405 0.016055746 0.36987492
000070 01 fc 39 be 10 1b eb 3c 58 20 8c 3e b0 ee cd 3d
       -0.18162538 0.028699428 0.27368426 0.10055292
000080 8b 9f 50 3e ac d5 3d be b6 e5 bd 3d c3 16 8d 3e
       0.20373361 -0.1853854 0.092723295 0.27556428
000090 56 35 08 3d 4c 3c b6 bd d7 9c 02 3e 4a ad 0d 3e
       0.03325399 -0.088982195 0.12755142 0.13835636
0000a0 50 0b d9 3d 6d d1 5e 3e 41 ac 29 3e 7d ca 97 3e
       0.10597861 0.21759577 0.16569616 0.29646674
0000b0 57 ef 0c bd d1 6b 08 be b4 88 13 be 2b 85 c2 3e
       -0.03440794 -0.13322379 -0.14407617 0.37992224
0000c0 ae a8 64 be 1c 39 98 3e 2c 9c f3 ba d0 05 67 3e
       -0.22329971 0.2973107 -0.0018585972 0.22560811
0000d0 03 a9 97 be 26 df 19 3e c1 30 41 3e 99 d5 e4 3d
       -0.29621133 0.1502653 0.18866254 0.11173553
0000e0 9f ab 5c 3e d9 4d 1e be e4 07 a7 bd ce d9 80 be
       0.21549843 -0.15459384 -0.08155802 -0.25166172
0000f0 c7 52 2b 3e aa c5 a1 be a0 75 1d bd 95 5a 16 bd
       0.16730796 -0.31596118 -0.038442254 -0.03670748
000100 f9 21 ae bd 73 41 ed 3d c4 e1 88 be 9c 4b 96 3e
       -0.085025735 0.11584749 -0.26734746 0.2935456
000110 de ff 89 be 11 97 6f bd 05 01 8f 3e a1 23 fd 3d
       -0.26953024 -0.058493678 0.27930465 0.12360311
000120 05 d4 8d bd 43 22 93 3e 83 4a 86 be dc 74 3b be
       -0.06925205 0.28737077 -0.26228723 -0.18306297
000130 bc 14 7f 3e d6 ae ba bd f2 1b 1d bc 67 8e dd bd
       0.24910253 -0.091153786 -0.009589182 -0.10818177
000140 ba fa 51 3e 83 ac 50 3e cc 8d 65 bd 85 f8 52 be
       0.20505801 0.20378308 -0.05604343 -0.20602615
000150 d8 6c 82 3e b2 0d 0e be c8 b1 f6 bd 04 16 45 be
       0.25473666 -0.13872412 -0.12045628 -0.1924668
000160 0d 4b 6c 3e 41 cd 68 be 5c c2 f5 3b a1 60 90 3e
       0.23075505 -0.22734548 0.007499976 0.28198722
000170 60 12 58 bd 83 be ad bd 3c d1 83 3e 75 36 9b 3e
       -0.0527519 -0.08483603 0.2574557 0.30314985
000180 5b df 6e 3e 88 c1 ae 3e 37 1b 85 3e 29 ef 7a 3e
       0.23327391 0.34132028 0.25997326 0.24505295
000190 92 a6 a8 3e 32 d4 aa 3e df 48 a3 3c 86 d3 d3 3d
       0.32939583 0.33365017 0.019932209 0.10343079
0001a0 d8 02 98 3e 47 83 2e be 07 e4 dd bd fd 9a 52 bd
       0.2968967 -0.17042266 -0.108345084 -0.05141734
0001b0 37 65 31 3e a6 a6 c0 3d 8c 1b 3c 3e 53 62 93 3d
       0.17323767 0.09406786 0.18369883 0.07196488
0001c0 a7 e1 3c 3b 07 e8 c6 3e e4 c1 ab 3e 40 7d bd 3d
       0.0028821023 0.38848898 0.33546364 0.09252405
0001d0 8e 0c 85 3e ea 13 ee 3d 26 07 33 bd e9 c9 1c 3e
       0.2598614 0.11624892 -0.04370799 0.15311398
0001e0 30 dd 86 bd 45 45 96 3c 74 9b c0 3e 1b 8e 24 be
       -0.06585157 0.018343577 0.376186 -0.16069834
0001f0 d5 7e 58 be c8 29 d7 3e 25 b2 54 bd 45 3d cf 3e
       -0.21142133 0.42024064 -0.051927704 0.40476432
000200 64 ec 29 bd e0 29 51 be ec b5 57 3d 9e 6b 03 bd
       -0.041485205 -0.2042613 0.05266373 -0.032085054
000210 37 ac 5b 3c 2f 89 41 3e ff 1b 26 bb bf 22 43 3e
       0.013407758 0.18899988 -0.0025346277 0.19056223
000220 4e 4d 22 3e 3b 8c b4 3e 35 58 0d 3e a3 26 96 be
       0.15849802 0.35263237 0.1380318 -0.29326352
000230 f0 b8 97 3e ac 79 d0 3e 1a e6 47 be df 7f 01 3f
       0.29633284 0.40717828 -0.1952137 0.5058574
000240 8f 1d f1 3d 0b 3a e3 3e ff 87 f1 bd db 82 f8 3d
       0.11773216 0.4438022 -0.11793517 0.12134334
000250 c2 04 82 3e aa c2 91 3e
       0.25394255 0.2846883

fc2.weight f4 [150, 150]
000000 53 e4 d9 3b b9 8e 91 bc 38 0e 36 3d 9b 12 d5 3d
       0.006649533 -0.01776825 0.044447154 0.10403939
000010 81 fd 66 3d 34 e4 3d 3d a5 b0 a8 bd 08 a9 33 3d
       0.056394104 0.04636021 -0.08236817 0.043862373
000020 5d ab 00 3c b6 fb 7a 3d 8c c8 84 3c 92 d6 9d bd
       0.007853356 0.061275207 0.01620891 -0.07706942
000030 bb 7c 9d 3d e1 01 32 3d ef 22 08 3d fc b7 f5 3c
       0.07689806 0.043458823 0.03323644 0.029994957
000040 40 13 19 3d 85 10 45 bc c6 91 de bc df 1d 81 3d
       0.037371874 -0.012027864 -0.02716912 0.063045256
000050 34 f8 a2 3d ec e1 15 3e 60 1f fb 3d eb 43 3d 3c
       0.07957497 0.14636964 0.12261844 0.011551837
000060 60 61 29 bd a6 04 13 3e b5 d0 69 3c c9 cc 9b bd
       -0.04135263 0.14357242 0.014270951 -0.07607419
000070 11 19 bf 3c 55 f9 be bd cd f7 bf bc bb 0f 23 3d
       0.023327382 -0.093249 -0.02343359 0.039809924
000080 ac fe 2e 3d 9e ae 66 bc a4 f9 03 3e 19 f6 04 3d
       0.042723343 -0.014079718 0.12888199 0.03246126
000090 45 f6 85 bd 75 ed 23 bd 99 ba d3 bb bf b0 88 3d
       -0.06541113 -0.04002138 -0.006461453 0.06674337
0000a0 c4 6b 93 3d 6d fd 15 3d 3c 7d 59 3c 47 10 23 bc
       0.07198289 0.03661864 0.013274487 -0.009952611
0000b0 b5 0d f6 3c be 67 b9 bd 47 50 ac bd 6c 1c e8 3c
       0.030035833 -0.090529904 -0.08413749 0.028333865
0000c0 97 d8 05 3e 18 a8 21 3d 2e 81 1d 3d 06 8e 16 3e
       0.13070904 0.039466947 0.038453273 0.14702615
0000d0 a2 1b 26 be a9 5f 1c 3d f1 fb 73 3d 6a af a6 3d
       -0.16221479 0.038177166 0.059566442 0.08138926
0000e0 ea a5 e9 3c 1d 24 f9 3c 5d ff cd 3c cf 95 13 3d
       0.028521497 0.030412728 0.02514618 0.03603154
0000f0 f4 b1 cc 3d 8f 5d 44 3d 69 d4 c4 3d 55 ac 05 3e
       0.09994879 0.047940787 0.096108265 0.1305402
000100 48 ce f9 3d 62 9e e1 3b 0d 6c 82 3d 28 7d 32 bc
       0.12197548 0.006885336 0.06368265 -0.010894097
000110 db fe d5 3d a5 9c 9e bc 9e 28 a2 bc 77 9b cc 3d
       0.104490004 -0.019361803 -0.019794758 0.0999059
000120 c5 d5 19 bd b5 4b 34 bd a0 4f d1 bd 99 52 89 bb
       -0.037557382 -0.044017512 -0.102202654 -0.0041907546
000130 cc 78 a5 3d b9 da 09 bd c3 7f 60 3d f5 78 b4 3d
       0.08079681 -0.033655856 0.054809343 0.08812133
000140 7e 01 88 bc eb 41 bb 3b 43 aa 2d 3d ef 2e 39 3c
       -0.016602274 0.005714645 0.042398702 0.011302694
000150 67 fb 59 bc 78 35 94 be 38 bc 12 bc 14 a2 dc 3d
       -0.013304568 -0.28947043 -0.008956008 0.107731014
000160 b5 6a 31 3e 65 e7 c0 bd b6 43 d3 3d 5b 18 64 bd
       0.17325862 -0.09419135 0.10315649 -0.05568729
000170 e0 df ae 3d bb fd 58 3e 0a 44 5b 3c 23 a1 2c bd
       0.085387945 0.2119054 0.013382921 -0.04214586
000180 80 dd 66 3d 8f b2 39 3d 30 bc a3 3c 7a ac a7 bd
       0.056363583 0.045336302 0.019987196 -0.08187194
000190 e0 07 0c bd 5c 6f 90 bc f2 e8 80 3d 40 3d fd 3d
       -0.034187198 -0.017631225 0.06294431 0.12365198
0001a0 d1 91 4b bc 00 a5 2b 3e de 88 fc 3d 18 2b d2 3d
       -0.012424902 0.16762161 0.12330793 0.10262126
0001b0 2e 28 00 be 17 80 36 3d c3 0b a6 bd 46 fc f3 3c
       -0.12515327 0.04455575 -0.08107712 0.02978338
0001c0 65 d8 a9 bd 7d aa 49 3d 86 97 e6 3b c6 77 f3 bd
       -0.08293227 0.049234856 0.007037106 -0.11888079
0001d0 aa 57 15 3d 50 28 bb 3d 87 dd 17 3c c8 6a 50 3d
       0.036460556 0.091385484 0.009269125 0.050883085
0001e0 8e 78 cf 3d 74 98 19 3e 47 e0 f4 bb 6e 76 ba 3b
       0.10130416 0.14999563 -0.007473025 0.0056903875
0001f0 b0 72 97 bc 4d 1d ca 3d b5 40 b0 3d e0 00 67 bd
       -0.018487304 0.0986887 0.08606092 -0.05639732
000200 5e 3e 68 3d 0b f2 8e 3e 86 0c 03 3b 74 49 92 bd
       0.056700103 0.2791904 0.0019996478 -0.07142916
000210 3b 0f 5d bd 04 3e 0a 3c 38 48 c7 be 92 9e 58 3d
       -0.053969603 0.008437637 -0.38922286 0.0528856
000220 c9 23 87 3d 02 50 af bb 27 c6 40 bd c1 87 ed 3d
       0.06598622 -0.005350114 -0.047063973 0.11598159
000230 9c 99 3c 3d b0 ec 89 3d d4 f0 65 3e d0 2d b3 3c
       0.04604493 0.06734598 0.2245515 0.021872431
000240 c9 25 0a be 13 6c b2 3d c6 de a2 3d 73 17 c9 3c
       -0.13490976 0.0871202 0.07952647 0.024547314
000250 6e 47 aa 3d bd 99 36 3d 87 d2 c0 39 1f b6 50 bc
       0.083144054 0.04458021 0.0003677795 -0.012738734
000260 fd 1b 58 bc 60 41 e4 3d fc 2b ab 3c 04 93 59 3d
       -0.013190267 0.11145282 0.020894997 0.05311872
000270 86 dd 34 3d f8 ed 08 3d db dc f8 3d 76 3e d9 3c
       0.044156574 0.03343007 0.121515 0.026519042
000280 0c 27 99 bd 0a 03 65 3d 9a f4 c1 bb e5 4e 85 3c
       -0.07478151 0.0559111 -0.0059190514 0.016272971
000290 37 99 74 3c 2b 79 fb bb 50 52 92 3c f4 d1 12 be
       0.014929107 -0.0076743565 0.017861515 -0.14337903
0002a0 a2 75 b0 bc 63 33 29 3d 2d 34 91 3d 79 c1 2f 3b
       -0.021540467 0.04130877 0.0709003 0.00268182
0002b0 67 e8 1a 3e 81 9d 94 3d c9 4e ca 3c e1 0a 04 3e
       0.15127717 0.07256604 0.02469577 0.12894775
0002c0 b9 3f 43 3d 8e 41 d6 bd eb 4b 04 3d 2d c2 12 be
       0.047668193 -0.10461722 0.032298964 -0.14331885
0002d0 a4 4c 78 bc a2 d2 45 3d b6 fa cc 3b 50 35 b2 3d
       -0.015154991 0.04829658 0.006255473 0.08701575
0002e0 97 16 0b 3e 65 59 6e 3d 92 5c d9 3c 49 a7 ae bd
       0.13582836 0.058190722 0.026533399 -0.08528001
0002f0 ba 13 5e 3d d7 05 72 bd 1f a1 c5 3d c2 f1 14 3d
       0.05421803 -0.0590876 0.09649872 0.03636337
000300 f4 13 67 bc 1e 6d bf bc 0a 2b d8 3d 29 26 a6 bd
       -0.014103878 -0.02336746 0.10555084 -0.08112747
000310 0c 44 39 be 42 ee 81 3c a2 cd 29 bc 0b 51 82 3d
       -0.18092364 0.01586068 -0.010363968 0.06363114
000320 43 14 75 bd 8e 5a 53 3b af 95 bb be 68 01 a3 3d
       -0.059833776 0.003225002 -0.36637637 0.079592526
000330 98 9e dd 3d ed aa 8b 3a 4d 14 f3 bd bb 14 bc 3d
       0.10821265 0.0010655798 -0.118691064 0.091836415
000340 e5 d5 9c 3d 04 ec 68 bd c9 9b 5c 3d 87 64 20 3e
       0.07657985 -0.056865707 0.053859506 0.15663348
000350 62 83 59 3d a4 a1 3a 3e 81 08 9b 3d 7d c7 d5 bd
       0.053103812 0.18225724 0.07569981 -0.1043844
000360 d6 7a 16 3c 7f 2a 53 bd d1 b7 1c 3e 0e f6 80 3d
       0.00918456 -0.0515542 0.15304495 0.06296931
000370 e5 28 2e bd 2c e0 35 3d bf d5 87 bd 0f ac 7d bb
       -0.04251947 0.04440324 -0.06632566 -0.0038707291
000380 65 89 28 3b 8b 11 03 be 16 0d 12 3d 55 d8 17 be
       0.002571666 -0.12799661 0.03565701 -0.14828618
000390 6a 92 f2 3d b0 bd 8a 3d 1d 5e 63 bd 7b 4c 99 3d
       0.118443325 0.06774461 -0.055509675 0.074852906
0003a0 01 42 13 3c 56 89 2a bb 69 f4 fa ba 6d f5 a1 be
       0.0089879045 -0.00260218 -0.0019146326 -0.31632558
0003b0 c3 5a b1 3d 20 c0 03 3e 7d 82 37 3d 83 78 8e be
       0.086598895 0.12866259 0.044802178 -0.27826318
0003c0 3c b0 33 3e af c6 1f 3c 22 f0 14 3d b4 1e 58 3d
       0.17547697 0.00975196 0.03636182 0.052763656
0003d0 6c d9 ea bd 14 68 8d bc 0e c4 88 3d c7 25 61 bd
       -0.11467251 -0.017261542 0.066780195 -0.054967668
0003e0 dc 95 0f bd eb c0 cd bd 30 cc 0b 3d 75 2f eb 3c
       -0.035055026 -0.10046562 0.034130275 0.028709153
0003f0 cd 3b 6d bd e8 7b fc 3d a4 d7 ae bb 86 52 a1 3e
       -0.05791836 0.12328321 -0.005335765 0.31508273

fc2.bias f4 [150]
000000 6e 80 cb 3d dd c4 5a 3d 07 99 16 3c a4 05 da bc
       0.099366054 0.0534104 0.009191758 -0.026614018
000010 32 e9 8b bc 0e 92 29 3d 00 1f f8 bc 0e bc 3d bd
       -0.01707897 0.041399054 -0.03028822 -0.04632192
000020 d5 4d 99 3d 0f b6 ce 3d 21 ec 83 3d 23 38 3a 3b
       0.074855484 0.10093319 0.064415224 0.0028414808
000030 d5 d3 1e 3e b7 a4 c2 3d d8 71 d1 3d 4f 73 82 bb
       0.15510495 0.09504073 0.10226792 -0.003981031
000040 c6 1f d0 3d 67 e2 49 3d fc ca b7 3d 6c 0e 22 3e
       0.1016231 0.04928818 0.08974263 0.15825814
000050 51 a9 22 3d b3 2c 34 bd 5d c2 42 3e 83 96 19 bc
       0.039712254 -0.04398794 0.19019456 -0.009374264
000060 7d f6 7c bc 76 9b 2a 3d 3b 9d ea 3d 41 1d 03 3e
       -0.015439627 0.041652165 0.114557706 0.12804128
000070 e0 0a 36 bd 7a 7b 04 3e 82 94 cf 3d db 93 a4 3d
       -0.044443965 0.12937728 0.101357475 0.08036014
000080 91 e2 c4 3d e9 d5 18 3e 86 5c 5f bc e6 b8 48 bd
       0.096135266 0.1492535 -0.013632899 -0.049004458
000090 bf f8 a7 3d 8b 98 cd bb c7 95 d6 3c a4 0e e3 3d
       0.082017414 -0.006274288 0.026194466 0.11086777
0000a0 2e 4f b0 bc 13 24 05 bd 14 6b 82 bc d6 55 13 3e
       -0.02152213 -0.032505106 -0.0159202 0.14388213
0000b0 1b dc 02 3e 77 6d 8c bc 02 c5 1b 3e 7c ec 1e 3e
       0.12779276 -0.01714204 0.15211871 0.15519899
0000c0 1f 4b 8c 3d 76 e4 d2 3d 52 f1 14 bd 29 45 12 3d
       0.06850266 0.10297482 -0.036362953 0.035710488
0000d0 cd 24 31 3d 45 1b f9 3d da 32 dc 3d 08 67 a3 bd
       0.043247987 0.121634044 0.10751887 -0.07978636
0000e0 90 b2 64 3d 46 2d 27 3d b5 40 2d 3e 0c 1a 55 3d
       0.055834353 0.04081466 0.16919215 0.052026793
0000f0 d5 49 45 3d 5b 95 e1 bc 36 8d 8a 3c 92 18 85 bd
       0.048166115 -0.027537039 0.016913038 -0.06498827
000100 9a 4d 67 3d ad 8c df 3c 9c 1c 2c 3e f4 d6 4b 3d
       0.05647049 0.02728876 0.16807789 0.049765542
000110 0f 72 de bc cd d6 ca 3b 36 e5 3a bd 13 c7 ec ba
       -0.027153997 0.006190157 -0.04562875 -0.00180647
000120 aa 28 f0 bc 31 a7 a6 bc 73 a3 49 3d e1 6f c9 3d
       -0.029316265 -0.020343395 0.049228143 0.09835792
000130 35 7d 18 3e 55 08 9f bd 82 17 14 3d cb fe d5 3d
       0.14891513 -0.07765261 0.03615523 0.104489885
000140 fc 47 f4 3c 54 47 e9 3d 54 51 da bc e0 67 08 3e
       0.029819481 0.11390558 -0.026650108 0.13320875
000150 e0 64 87 3d bb 2b 22 3c 19 b5 ad 3d ae f5 73 bd
       0.06611037 0.0098981215 0.08481807 -0.05956047
000160 38 77 c4 3d f7 49 0a bc c0 04 7f bc 46 51 c6 bc
       0.09593052 -0.008440486 -0.015565097 -0.024208676
000170 56 41 9d 3b c2 c4 aa 3d 2d 2c af 3c 02 ec c8 bc
       0.0047990484 0.0833831 0.02138337 -0.0245266
000180 b8 90 7b 39 57 55 f1 3c f4 f8 6e 3d e1 fa e6 bc
       0.00023991137 0.029459639 0.05834289 -0.0281958
000190 dc f9 96 bd ca 13 18 3d 17 95 3d 3d ec 9c a6 3d
       -0.07371876 0.037128247 0.04628476 0.08135399
0001a0 a8 6a 7a 3c b9 d1 f9 bc fc 74 3c 3d 2f 65 a3 3d
       0.015284218 -0.030495511 0.046010002 0.079782836
0001b0 9f d6 8b 3c 82 43 f5 3d 55 44 8a bb c7 a1 42 bd
       0.017070113 0.11975767 -0.0042195716 -0.047517564
0001c0 e8 92 23 bd 3b 71 85 bd 3a 61 f2 3c fd 52 97 bc
       -0.039935023 -0.065157376 0.029587377 -0.01847219
0001d0 82 b5 e6 3c 7c fa 0a bd 17 12 a4 bd fc 0a 71 bd
       0.028162722 -0.033930287 -0.08011263 -0.058848366
0001e0 ef a5 d1 3d de 47 71 3d 4f fb 95 3d 55 db 94 bc
       0.102367274 0.05890643 0.07323324 -0.018170992
0001f0 fe fb 10 3d e6 14 23 3c 5f 68 24 bd 9b 41 e5 3d
       0.03539657 0.009953713 -0.0401386 0.11194154
000200 d7 3c 06 3c 44 ad 43 3d cb 55 82 bc 81 8a 70 3c
       0.008193216 0.04777266 -0.01591005 0.014681459
000210 92 f5 11 3d 45 31 2b bb 6e db f5 3d 24 f5 30 3b
       0.035634585 -0.0026121896 0.120047435 0.0027001584
000220 8b 16 d4 3c d2 af 1f 3e db ab 4c 3b 5a 17 5c 3d
       0.025889656 0.15594414 0.0031230364 0.053733207
000230 04 64 58 3e 29 57 7a bd ad 1d 2c 3d 7b 02 d8 3d
       0.21131903 -0.06111828 0.04202049 0.10547348
000240 2e ce 54 3d e6 39 7f bc 0c 35 bf bc 55 4d f9 3d
       0.05195444 -0.015577769 -0.023340724 0.12172953
000250 54 a0 a3 bb 36 d7 21 bc
       -0.004993478 -0.00987797

fc3.weight f4 [150, 150]
000000 55 51 30 bd 20 8f 6c 3d 03 b7 d2 3c 21 09 37 bd
       -0.043046314 0.057753682 0.025722032 -0.04468644
000010 02 36 27 bd 2c 4f 2d bd 8e 63 f0 3c 5b 4c 96 bd
       -0.04082299 -0.042311832 0.029344346 -0.073387824
000020 61 28 20 3c b9 69 92 3d 18 5b df 3b d8 20 73 3c
       0.009775252 0.07149071 0.006816279 0.0148393735
000030 ce dd de bc de d0 03 3c cc 24 ae bc 6a 5e 95 3d
       -0.027205374 0.008045403 -0.02125778 0.07293399
000040 06 46 23 bd 68 18 f4 bc 41 43 0c bd 2b f0 99 bc
       -0.0398617 -0.029796794 -0.034243826 -0.018791279
000050 d4 25 98 3d b7 82 7e 3c 31 35 6e 3b fa 47 56 3d
       0.0742909 0.015534095 0.0036347623 0.052314736
000060 de 00 2c bd 8d 36 6f 39 99 71 a0 bd 80 d5 a5 bd
       -0.041993015 0.00022813138 -0.07834167 -0.080973625
000070 35 ee 71 bb cc 6f 00 3d c9 ba 55 3c a0 53 a1 bb
       -0.0036915664 0.031356618 0.013045021 -0.004923299
000080 29 d1 07 bd 4b bf ac 3c 4f 63 3a bd c9 a5 07 bd
       -0.033158455 0.02108731 -0.045504864 -0.03311709
000090 c6 8b 4c bd 1a 22 32 3d 5d a2 29 3d 59 a3 ff bb
       -0.049937986 0.043489553 0.041414607 -0.007801455
0000a0 c5 d7 1b 3d 77 1c 62 bc 83 ba f0 bc 49 76 8c 3c
       0.03804757 -0.013800732 -0.02938581 0.017146247
0000b0 02 ae a4 3a 7f 62 f2 bc e2 46 7d 3d 9d 13 65 bd
       0.0012564065 -0.029587982 0.061835177 -0.055926908
0000c0 94 0f d6 bb f7 3c 33 bd 11 81 39 bd 1c 02 d3 bc
       -0.006532619 -0.043759312 -0.045289103 -0.025757842
0000d0 35 41 92 bc 8b 62 82 bc 10 98 05 3d 6c 31 7d ba
       -0.017853359 -0.01591613 0.03261572 -0.00096585485
0000e0 74 77 54 3c ea 79 09 3d d5 6a 91 bd 2b 93 37 3d
       0.012967933 0.033563532 -0.07100455 0.044818085
0000f0 db 30 8d 3d a4 62 be 3b 08 55 4d bc 57 27 9b bd
       0.06894084 0.0058100987 -0.01253248 -0.07575863
000100 2f a1 d3 bc 2d 69 24 bc 42 b0 a4 bd 32 b1 2b bd
       -0.025833694 -0.0100348415 -0.08041431 -0.041917033
000110 8f be 3e 3d c0 c5 26 bd 51 e0 68 bd 79 2a ae 3c
       0.04656845 -0.040715933 -0.05685455 0.021260487
000120 94 41 a3 bd 2b 30 a0 3d 9f a6 df bb b9 aa c5 bc
       -0.079714924 0.07821687 -0.0068252827 -0.024129258
000130 04 ba 88 bd 18 02 79 3c 49 8e a6 3d 05 9d 84 bd
       -0.06676105 0.015198253 0.081326075 -0.064752616
000140 89 7b 6e 3c 70 f3 9d bd 3c ae a5 3d 54 db e9 3c
       0.01455582 -0.07712448 0.08089873 0.028546967
000150 4d 47 e1 bc c9 3f ca 3c 06 ce 48 3d 23 f8 7e 3d
       -0.02749982 0.024688618 0.049024604 0.06224836
000160 6a 8b a3 bc 9f 82 59 3c b1 4b 1b 3d 05 3e 58 bc
       -0.019963939 0.013275771 0.03791398 -0.01319838
000170 0e af 7c 3d 9c ef a7 3c dc 78 dc 3c a5 d3 0d 3c
       0.061690383 0.020499997 0.026913099 0.008656417
000180 2c 23 62 bd d2 a9 05 bd 07 54 d0 bc a5 3b 83 3d
       -0.055209324 -0.032632656 -0.025430692 0.06407861
000190 a3 9d 20 bd 27 86 9e 3d d2 c9 ad bc 1b 16 d9 3b
       -0.039212834 0.07740431 -0.0212144 0.0066249496
0001a0 52 e7 d3 3c f4 11 9b 3d 55 58 8e bd 2d 70 dd 3c
       0.025867138 0.07571784 -0.06950442 0.027031029
0001b0 b6 f7 71 bd f3 2d 59 bd b2 b1 96 bd ba 6f ea bc
       -0.059074126 -0.053022336 -0.073581114 -0.028617729
0001c0 9d 36 d5 3c 17 cc 1a bc c6 60 5c 3d 48 7f a6 3d
       0.026027018 -0.009448073 0.053803228 0.08129746
0001d0 2b 12 00 bd f8 f0 81 3d ca 56 e4 bc 9a 74 6d bd
       -0.031267326 0.06344789 -0.027873415 -0.057972528
0001e0 e0 e4 24 3d cc bf a3 bd 91 c1 90 bd 65 e3 97 bd
       0.040257335 -0.07995567 -0.0706817 -0.07416419
0001f0 5b 60 f7 3c 86 af 1e 3c 03 1d 9e bd a7 93 80 bd
       0.030197313 0.009685403 -0.07720377 -0.062781624
000200 d7 f9 fe bb e4 9e 35 bd 4e 12 e9 3b 21 83 81 3c
       -0.007781248 -0.044340983 0.007112778 0.015809597
000210 ab 1a 1f 3d 4c 4d 99 bc 2b 15 85 bd c1 56 50 3d
       0.038843792 -0.018713616 -0.06498178 0.050863985
000220 ce 0b 87 bd d7 b3 d8 3c 58 cf ae bc f0 bc 5d bd
       -0.065940484 0.026452942 -0.021339104 -0.054135263
000230 ab 4f 73 3d da 41 8c 3d 48 58 2b 3d 90 27 86 3c
       0.05940215 0.06848498 0.04183224 0.016376287
000240 a7 ea 51 3d 7b be 82 3a 1b 34 ae 3c a4 1d 6b bc
       0.051249173 0.000997498 0.02126508 -0.014350329
000250 5c f8 83 bd f8 17 aa 3c a2 41 36 3b 0d 9c 8b bd
       -0.06443855 0.020763382 0.0027810116 -0.06816874
000260 d3 8c 08 3c 9b 26 6a bc fb 97 a2 bd 6a 99 0b bd
       0.008334356 -0.014291431 -0.07939144 -0.034081854
000270 d9 95 6d 3d eb fe f6 bd 9f 95 49 be 80 6b d1 3d
       0.058004234 -0.120603405 -0.19685982 0.10225582
000280 32 93 2c 3f 51 46 e4 bd a1 22 2d 3e 1d 3f e5 3c
       0.674121 -0.11146224 0.16907741 0.027984196
000290 08 5b d1 3e 3a 0b 6a bd ea 43 f0 3e 21 ed 90 3e
       0.40889764 -0.057139613 0.46926814 0.28305915
0002a0 f8 0e c4 b9 ef f0 5f bc 3f a6 c5 bc cc 7d 3d be
       -0.00037395186 -0.013668283 -0.024127124 -0.18505019
0002b0 24 e1 5c 3e fb 43 09 be 5d 44 e1 bc ea c9 89 3b
       0.2157026 -0.13404839 -0.027498418 0.0042049782
0002c0 6f 66 dc bd 84 07 a1 3e dd 94 d8 bd 58 3c b7 3d
       -0.10761725 0.31451046 -0.105752684 0.089470565
0002d0 5d a2 06 3f 83 8c cb bd 40 59 22 bd ba 02 8b 3d
       0.52591497 -0.0993891 -0.039635897 0.067876294
0002e0 57 19 f3 3e 26 f0 d8 bd 00 3d 63 3d 78 82 fe bd
       0.4748027 -0.1059268 0.055478096 -0.12427229
0002f0 9a f3 14 3f 99 f4 8f be ff bd e9 bd c8 44 80 be
       0.58184206 -0.281163 -0.11413192 -0.25052476
000300 c2 e9 f9 3c 38 e5 9d 3c 72 83 f5 bc 6d 6e 9a be
       0.030506972 0.01927434 -0.029969905 -0.30162373
000310 0b ec d1 3d 08 cb 86 3c 64 44 b3 3e c4 40 d8 3b
       0.102501 0.016454235 0.35013115 0.0065995175
000320 5a 3e 62 3d 10 65 a3 bb b5 6d 78 3d ce 26 a7 3d
       0.055235244 -0.004986413 0.0606515 0.08161698
000330 a0 45 b6 3e 63 28 14 3d 76 63 5c bd f6 9e 91 3d
       0.35599995 0.03617133 -0.05380579 0.071103975
000340 ea c3 77 bc 95 c6 f4 bc fa ee 9b 3d cc 3b 34 bc
       -0.015122393 -0.029879848 0.076139405 -0.011000585
000350 5c b6 e8 bd 90 29 d8 bd f3 bd 13 3f 29 8b 9d 3c
       -0.11362907 -0.105548024 0.57711715 0.019231396
000360 0a 67 94 3d 61 79 b7 bd 70 9c 83 be 23 b9 62 bd
       0.07246216 -0.08958698 -0.2570529 -0.05535234
000370 56 6e ca bd a4 ed 05 3c b0 f4 44 3d 6c 7d 4a bd
       -0.09884326 0.008174334 0.048084915 -0.049436018
000380 90 17 91 3c c2 e3 e4 bc 5b 0a 8f 3e 71 ae 86 3d
       0.01771143 -0.027940635 0.27937588 0.06576241
000390 c7 f4 08 be 86 c2 8e 3d ed 95 ac be 3a 15 dc 3c
       -0.13374625 0.06970696 -0.33708134 0.02686559
0003a0 40 a4 94 bd 64 54 c6 3d b7 60 32 3d 39 4d 82 bc
       -0.07257891 0.09684065 0.043549266 -0.015905963
0003b0 54 01 89 bd 3b ef 25 be b2 53 6b bd b2 73 ae 3d
       -0.066897064 -0.1620454 -0.057452865 0.08518161
0003c0 8a a3 c2 3c b7 90 ea 3e 44 79 04 3c 2d d7 d5 bd
       0.023759622 0.45813534 0.008085553 -0.10441432
0003d0 c8 bf 96 3e ae 7a 36 3d dc 69 99 be 8a c9 f3 3c
       0.29443192 0.04455059 -0.29963577 0.029759187
0003e0 e8 b9 df bd a7 92 b0 bc 16 06 13 bd ce b2 c2 bd
       -0.10924131 -0.021554304 -0.035894476 -0.095067605
0003f0 e1 42 ce bc 0a ae 67 be 2f 4e e2 bc ef 79 18 be
       -0.025178375 -0.22624984 -0.027625171 -0.14890264

fc3.bias f4 [150]
000000 ff 1b ea 3b fd ec 04 3e 59 dd dd 3d 9b 5e 46 3d
       0.0071444507 0.12981029 0.10833234 0.048430067
000010 12 f0 69 3d 61 13 ae 3d 03 8c 08 3e 63 ad b2 3d
       0.057113715 0.0849979 0.1333466 0.08724477
000020 ed d5 3c 3b 6b d0 a7 ba 56 a7 fc bd 78 58 7a 3e
       0.0028814033 -0.0012803202 -0.12336604 0.2444781
000030 34 4d ec 3c 57 85 fd 3d 55 22 dc 3d 0f 96 8e 3c
       0.028845407 0.12378948 0.10748736 0.017405538
000040 17 ac db bc 42 fb 5e 3c 42 8e bc 3d 0d 44 c0 3b
       -0.026815457 0.013609709 0.09206821 0.0058674873
000050 30 5f 81 3d dd 50 35 ba d0 23 10 3a bc 06 05 3e
       0.06316984 -0.00069166516 0.00054985005 0.1299085
000060 10 8f 9c bd ef 98 06 bd 74 22 e8 3d da 7e e6 3d
       -0.076444745 -0.032860693 0.113346964 0.11254664
000070 72 fc ce 3d 2b db ae 3c 88 27 ae 3c 84 3b af 3c
       0.10106744 0.021344742 0.021259084 0.021390684
000080 b2 b5 14 bd 2d ab 45 3d 95 47 20 3e cc 4b 3e 3d
       -0.03630609 0.04825895 0.15652306 0.046459004
000090 02 9b a4 3d 44 71 8b bc 38 bd 87 3d aa 8c 0e 3b
       0.08037378 -0.017021783 0.066278875 0.0021751323
0000a0 76 f6 9c 3b 22 ea 82 3d b6 b4 20 3e 14 58 b1 3c
       0.0047901226 0.063923135 0.15693936 0.021648444
0000b0 bd 4c 0f 3e fb e2 ca 3c ea 7f bc 3d ad 0a a4 3c
       0.13994117 0.024766436 0.09204085 0.020024622
0000c0 54 c0 b3 bc 70 86 a4 3d 3a ba 41 3d 0a bf 28 bb
       -0.021942295 0.080334544 0.04729674 -0.0025748634
0000d0 02 98 47 3d d6 7f 8e 3d 8f 1d 58 3d 19 3c 04 3e
       0.04872895 0.069579765 0.052762564 0.1291355
0000e0 a2 1b 79 bd d5 99 91 3d e2 94 d5 3d b2 b3 c6 3d
       -0.06081737 0.07109419 0.10428788 0.09702243
0000f0 9a 6f e3 3d 5b 23 6b 3e be e7 0e bd e8 16 d3 bc
       0.11105271 0.22962706 -0.034888975 -0.025767758
000100 96 8d 76 3d 9f 3f 88 bd b7 6e e9 3d ff 03 7f bd
       0.06019362 -0.0665276 0.1139807 -0.06225967
000110 8d 6a 5a 3c 62 15 28 3e b3 1d 4b 3d fe 63 f0 3d
       0.013331068 0.16414407 0.04958887 0.11737822
000120 fd 90 a0 bd 08 4c e5 3c 9d aa 13 3d a3 d3 03 bc
       -0.07840154 0.027990356 0.03605138 -0.008046064
000130 7d cc 96 3d 1d 6f 81 bd 0b ce 6d bc 57 3e e1 3d
       0.07363222 -0.06320021 -0.0145144565 0.109982185
000140 88 6b 6d bd 8e 8a cc 3c 6c b3 51 b9 47 f7 2e 3e
       -0.057963878 0.024968412 -0.00019998633 0.17086516
000150 a6 85 8e 3b e1 50 56 3e d0 26 9a bd 62 a4 79 3e
       0.004349428 0.2092929 -0.07526934 0.24379113
000160 89 ae 3a bc 74 3f 46 bd 80 b7 a3 bd bd ee de 3d
       -0.0113941515 -0.048400357 -0.07993984 0.108853795
000170 b9 22 97 bd d4 6a db 3d 6f bd cd 3b fc 6e 53 3c
       -0.0737967 0.10713735 0.0062786858 0.012904879
000180 71 52 9c bd bc b9 f1 3c 8c 85 46 3e 28 8f 88 3c
       -0.07632912 0.02950751 0.19386882 0.016669825
000190 8e e7 b2 3d e6 08 e1 3d 07 88 6c 3e cc 66 f0 3d
       0.08735572 0.10988025 0.23098765 0.11738357
0001a0 49 79 6b 3c c4 10 97 bc b5 26 da bd 02 d8 82 3d
       0.014372178 -0.018440612 -0.10651914 0.063888565
0001b0 11 d8 6a bd 3f d0 d7 bb ae 2b c6 bb b7 36 66 bd
       -0.057334963 -0.006586104 -0.0060476875 -0.056204524
0001c0 8a 83 e6 3d a6 23 db 3d a8 65 a1 3c 66 aa 2f bd
       0.11255558 0.10700159 0.019701794 -0.042887114
0001d0 f4 de b8 bd d0 da 66 3e 08 c2 16 3d c1 57 a4 3d
       -0.090269 0.22544408 0.036806136 0.0802455
0001e0 8c 07 d7 3a b1 a6 0f bd 48 c9 dc bd 62 21 41 3d
       0.0016405447 -0.03507108 -0.10780579 0.047150977
0001f0 ba 3a fe bc a9 20 83 bc 15 65 09 3c c7 94 ab 3d
       -0.031033862 -0.016006785 0.008385916 0.083779864
000200 0b bf 67 bd 86 f2 04 3d a5 b4 3b bd 48 a7 89 3d
       -0.056578677 0.03245785 -0.045826573 0.067213595
000210 8b f7 c9 3d c5 b0 16 bd e3 ab 27 3d a9 06 f9 3d
       0.09861668 -0.036789674 0.04093541 0.121594734
000220 33 eb 4a bd b1 e3 56 bc c6 bf 5b bd ae 81 22 38
       -0.04954071 -0.013115809 -0.053649686 3.8744583e-05
000230 5c 1c c0 ba e1 da 03 3d f3 37 69 3d ec 98 b3 3d
       -0.0014656889 0.03219116 0.056938123 0.08769402
000240 e5 80 45 bd 16 d4 0a 3c 50 ab 45 bb ab 5e 09 3d
       -0.048218627 0.008473417 -0.0030161925 0.033537548
000250 6a a0 97 3d 68 be 34 bd
       0.074036434 -0.044126898

out.weight f4 [4, 150]
000000 43 95 38 bd 05 d8 db 3e aa 62 d4 3e 70 de 24 3e
       -0.045064222 0.42938247 0.41481525 0.16100478
000010 6c 97 40 bd 5a e1 9d bd 57 46 b7 bd 01 76 be bd
       -0.047019407 -0.07708998 -0.08948963 -0.09299851
000020 21 6d 00 be 4d 86 15 be e9 fe b9 3d 0c af 04 3f
       -0.1254163 -0.14602013 0.090818234 0.518296
000030 b0 ba ad bb 62 6a be bd ec dd ff 3e ae 10 25 be
       -0.005301796 -0.09297635 0.49974 -0.16119644
000040 e1 4b a0 3d 6f a1 44 bc 24 44 21 be de 91 39 3f
       0.07826973 -0.012001379 -0.1574865 0.724882
000050 a8 55 10 bb e3 5d b6 bd e3 c0 59 bd 31 90 1b 3f
       -0.0022023711 -0.08904626 -0.053162467 0.60766894
000060 a7 f5 4c 3d f0 16 63 3d c6 41 20 be 8e 34 26 be
       0.05003896 0.055441797 -0.1565009 -0.16230986
000070 00 d0 35 3e f1 06 1f be 6d 9d ef ba 0a 96 0e be
       0.17755127 -0.15529992 -0.001828117 -0.13924423
000080 ac e0 8f bc fb f8 e4 3f fa 6a fd 3e 68 e0 11 be
       -0.017563187 1.7888483 0.4949568 -0.1424576
000090 c4 48 ba bd 05 78 29 bc 2d 01 09 bd 8a d2 e5 bd
       -0.0909591 -0.010343556 -0.033448387 -0.11221798
0000a0 d5 47 f6 bd f7 f4 07 be f3 f6 d2 bd 8e da bf bd
       -0.120254196 -0.1327704 -0.10301008 -0.09367858
0000b0 38 0c 1c be be 8f cf bd f5 0c fd bd 46 21 e2 bd
       -0.15239036 -0.101348385 -0.12355987 -0.11041503
0000c0 df 30 c8 bb b6 e9 d6 bd 4e 45 51 bd 75 10 16 bd
       -0.0061093415 -0.104937956 -0.051091485 -0.03663679
0000d0 72 ff c1 bc 01 c0 99 bd c9 b9 9f bd 9b ed 02 3f
       -0.023681376 -0.07507325 -0.077991076 0.5114381
0000e0 85 3b a5 bc 81 78 1d be e5 f6 02 be 8e e7 ee bd
       -0.020169983 -0.15378 -0.12789495 -0.11665259
0000f0 ab b8 19 be 1d 73 fd 3e 5b 3b 70 bc 99 cd 80 bd
       -0.15011851 0.49501887 -0.014662589 -0.06289215
000100 d7 4d 39 bd a4 55 90 3d c9 4e 1e be c8 4b 4b bd
       -0.04524025 0.07047585 -0.15459742 -0.049632818
000110 bb 96 a2 bd b7 af de bd a7 5d 98 bd 0b 58 0b be
       -0.07938906 -0.10873359 -0.07439738 -0.13607804
000120 11 fe 55 3c 81 aa 2a be a7 fd 4e bb ff 3b fa bd
       0.013061062 -0.16666605 -0.0031584294 -0.122184746
000130 74 80 7d 3d 37 d7 6e 3d 1d 98 c1 3a 76 6f f4 3e
       0.06189008 0.058310714 0.0014770065 0.47741288
000140 84 90 14 bd 30 1c 0c be e6 a2 eb bd 0d bf c5 bd
       -0.036270633 -0.13682628 -0.1150568 -0.09655581
000150 d7 61 fb 3c e8 65 0f 3f a8 d4 51 bc 9a a9 ff 3e
       0.030686302 0.5601487 -0.012807049 0.49934083
000160 0a 23 95 be c5 41 16 3e ac 2a 94 3d 9b 72 e5 3e
       -0.29128295 0.14673527 0.072347015 0.44814
000170 2a 7a 73 bd 53 38 97 bc 9a 83 b9 bd 7c 37 c3 bd
       -0.059442677 -0.018459475 -0.09058304 -0.09532067
000180 bb f9 8f 3d 2c 3e 1b bd c7 28 a5 3e 91 c1 27 be
       0.07030054 -0.03790109 0.32257673 -0.16382433
000190 71 cb 1f be f6 2a 02 be 22 de 22 3e ec 63 13 3f
       -0.1560495 -0.12711701 0.1590505 0.57574344
0001a0 40 ec ec bd 13 3c 84 3c 8b 4f 75 bd 65 73 a9 bd
       -0.115684986 0.016141927 -0.05989031 -0.08273963
0001b0 5d f5 01 be d0 fb 03 bc 74 22 13 be b3 de f8 3c
       -0.12691255 -0.008055642 -0.14368612 0.030379629
0001c0 c0 7b c2 bd 3a 12 30 3e a0 55 ac bd bf 1f f5 bc
       -0.0949626 0.17194453 -0.08414769 -0.029922364
0001d0 6d 43 6f 3d aa 66 02 3f 0e af ae 3a d2 de 02 be
       0.05841391 0.509379 0.0013327317 -0.12780312
0001e0 80 f9 dd bd 36 84 c9 bd 03 b0 96 3d 80 ef 75 bd
       -0.10838604 -0.0983967 0.0735779 -0.060042858
0001f0 72 49 4f bd 93 77 ed ba b0 ad 34 3e 53 46 f0 3e
       -0.050607152 -0.0018117301 0.17644382 0.46928653
000200 a1 08 f7 bd 7a 5d f8 bd 9e 12 5f bc 8f a4 c8 bd
       -0.12062193 -0.12127204 -0.0136152785 -0.09797012
000210 24 46 8f bc e7 b9 5d 3d f3 58 17 3f 5e 70 4d be
       -0.0174895 0.05413237 0.591201 -0.20062396
000220 b5 13 14 be 3b 62 c5 bd 8a f3 db bd f5 78 08 be
       -0.14460643 -0.096378766 -0.10739811 -0.13327391
000230 2c 10 81 3d c1 44 c7 3c ea cf 8a 3b 3f 05 17 be
       0.06301913 0.024324777 0.004236211 -0.14748095
000240 af 45 46 3c 84 e5 24 bd fa 95 4b bc 3b 9b 0d bd
       0.012101575 -0.040257946 -0.012425894 -0.034571867
000250 81 93 e4 bd 00 55 85 bd 07 91 04 bb 53 9c cb 3e
       -0.11160947 -0.06510353 -0.0020228045 0.39767703
000260 64 5c 0a 3f c6 ae 8d bc 1a 0d 7d bc c5 6d d8 bd
       0.54047227 -0.017295253 -0.015445018 -0.10567812
000270 2e 9f 25 be 91 e9 e8 bd a7 9f a4 bd ef 0d de bd
       -0.16174003 -0.11372674 -0.08038264 -0.10842501
000280 15 e0 38 3e 71 73 0d 3f 8e 41 31 bd f3 c3 22 be
       0.1805423 0.55254275 -0.04327541 -0.15895061
000290 22 d3 b3 3e 89 73 15 be d6 ea 7d 3e 16 78 41 3d
       0.3512202 -0.14594854 0.24796614 0.047233663
0002a0 ca 84 18 be 00 0e 3e 3f 03 8b dc 3c eb 39 06 be
       -0.14894405 0.7424011 0.026921755 -0.13108031
0002b0 7c 3e 6d bd 28 32 81 3f 42 0c 4b 3e 4e 93 82 3d
       -0.057920918 1.0093431 0.19828895 0.063757524
0002c0 70 ea 35 be bb 0b 18 be b9 7b 62 3e b9 7a bb bd
       -0.17765212 -0.14848225 0.22117509 -0.09154267
0002d0 d0 1d fc 3c 27 b4 74 bd 8c 00 12 3c 45 f0 db 3f
       0.030775934 -0.05974212 0.008911263 1.71827
0002e0 84 c8 56 3e a3 8d 89 bd e4 ee 1f be 6b d7 20 be
       0.20974928 -0.06716468 -0.15618473 -0.15707175
0002f0 bf 8e 87 bd b7 59 8a bc c2 55 b8 bd bb 86 ef bd
       -0.066190235 -0.016888482 -0.09000732 -0.1169562
000300 6d 08 17 be 2e d8 03 be ea 2c 25 bd af 13 72 bd
       -0.14749308 -0.12875435 -0.040326037 -0.059100803
000310 fe b9 1e bd 7f 0f 6f bd 42 e6 6a 3d 8b de 9d bd
       -0.038751595 -0.058364388 0.057348497 -0.07708462
000320 8e 96 30 3c e8 9f 32 be f4 ee 25 be 1e 46 3b be
       0.010778083 -0.17443812 -0.16204435 -0.18288466
000330 5e 13 05 be 8d e6 8e 3e c8 a9 a6 bc 5a 7e 33 bd
       -0.12995669 0.2791027 -0.02034463 -0.04382167
000340 a3 30 01 bc ac cb 27 be e3 ea a3 bd fe 3e 25 3f
       -0.007885131 -0.16386288 -0.080037855 0.64549243
000350 0f c4 32 be 66 cd 03 be 39 aa 29 be e2 82 86 bd
       -0.17457603 -0.12871322 -0.16568841 -0.06567933
000360 57 2c 0e be e7 14 6b 3d 84 59 0c be 24 28 f9 bd
       -0.13884102 0.05739298 -0.13706023 -0.12165859
000370 87 13 34 bd 84 e4 00 be 0d 6d a9 bd 06 f8 70 bd
       -0.043963935 -0.12587172 -0.08272753 -0.058830284
000380 c1 2b 5a bd 87 90 5d bd ca 03 67 bc 83 17 57 bc
       -0.053264383 -0.05409291 -0.0141000245 -0.013128164
000390 a0 7e 84 3d fc dd 05 3f 96 6c 22 be 13 bf 17 be
       0.06469464 0.52291846 -0.15861735 -0.14818983
0003a0 90 3c a7 bd ba c1 9d 3e e6 c7 42 3d 56 92 3f 3f
       -0.08165848 0.30811864 0.04755392 0.74832666
0003b0 81 46 56 bd 4c 0f fe 3e d1 dc 72 be 9d 8f 67 3e
       -0.05231333 0.49621046 -0.23717047 0.22613378
0003c0 12 7f 63 ba 0f 96 7b 3e 96 35 1d 3d de c4 3e be
       -0.0008678298 0.24568962 0.03838118 -0.18629786
0003d0 62 86 98 bd 18 bc 75 bd de 98 31 3e 9d 9b f3 bd
       -0.074475065 -0.059993833 0.1734347 -0.11894915
0003e0 57 dc de 3e 5f 52 f2 bd 38 af 0a be ad bb ee bd
       0.4352748 -0.11832117 -0.13543403 -0.1165689
0003f0 92 72 9a 3e b6 04 26 3f b6 c6 3b bd 29 14 63 3c
       0.30165535 0.6485094 -0.045843802 0.013859787

out.bias f4 [4]
000000 90 97 fd 3a 68 97 49 bd ba f4 20 3d ee f6 38 3c
       0.0019347537 -0.049216658 0.03929589 0.011289341
